login_form_validation/.dart_tool/chrome-device/Default/optimization_guide_prediction_model_downloads/8c5362f7-d2c6-4e77-b6fb-fc4ebec933d1/model.tflite (tflite, 67216 bytes, 5 tensors)

dnn/hiddenlayer_1/bias/part_0 f4 [64]
0	0x3d813ad9	0.063100524
1	0x3bfe0ce4	0.0077530015
2	0xbd3a91a7	-0.04554906
3	0x3e0a3386	0.13496217
4	0x3d35d9aa	0.044397034
5	0xbc32be82	-0.010909678
6	0x3bfb1a41	0.007663042
7	0x3d2d058d	0.04224162
8	0x3df81e50	0.12115157
9	0x3dae6438	0.08515209
10	0x3b8bb7e1	0.0042638634
11	0xbc838bf0	-0.016057938
12	0xbd5c40a6	-0.05377259
13	0x3d95afd2	0.07308926
14	0xbc0547e5	-0.008134817
15	0xbcb03c13	-0.02151302
16	0x3d34b1dd	0.044114936
17	0xbceaab2c	-0.028646074
18	0x3d675cb9	0.05648491
19	0xbafd13a3	-0.001930822
20	0x3d86b33d	0.06577156
21	0x3dcde687	0.10053735
22	0xbbc9a839	-0.006154087
23	0xbc302387	-0.010750658
24	0x3a8a2b75	0.0010541516
25	0xbc214509	-0.009843119
26	0xbdd75413	-0.10514083
27	0x3db55c78	0.08855528
28	0x3ce51113	0.027962243
29	0x3c1be08d	0.009513986
30	0x3beda380	0.0072521567
31	0x3d12035f	0.035647746
32	0xbc95140e	-0.01819804
33	0xbd10795e	-0.035271995
34	0x3c01926f	0.007908448
35	0xbbd363d9	-0.0064511118
36	0xbd85cce4	-0.065332204
37	0xbc99a806	-0.018756878
38	0x3c5631c3	0.013073388
39	0x3ddf4c0b	0.10903176
40	0xbd08c0ad	-0.033386875
41	0xbd2a7413	-0.041614603
42	0x3d572485	0.052525062
43	0xbc0e5c21	-0.008688957
44	0x3d9e5747	0.077314906
45	0x3d2b9495	0.041889746
46	0xbd938e96	-0.072049305
47	0x3ce35c94	0.027754106
48	0x3c410eab	0.011783282
49	0x3b057a7f	0.0020367203
50	0xbcd7dfbd	-0.026351804
51	0xbd198a7e	-0.037485592
52	0x3d800e77	0.06252759
53	0xbcce9e30	-0.025221914
54	0xbc946b34	-0.018117525
55	0xbd454433	-0.048160743
56	0xbc92bbdf	-0.01791185
57	0x3d324d39	0.043530677
58	0xbd0dbcb9	-0.034603808
59	0x3cab35fc	0.020899765
60	0x3cc56d17	0.02409987
61	0xbd593d32	-0.053036876
62	0xbd498889	-0.049202476
63	0xbd0bd7e6	-0.034141444

dnn/hiddenlayer_0/bias/part_0 f4 [128]
0	0x3d60816f	0.054810937
1	0xbc9ea246	-0.019364487
2	0x3cddf4b6	0.027094226
3	0x3cf4b6c8	0.029872313
4	0x3d202729	0.039099846
5	0x3c986dcc	0.018607043
6	0x3d8bf718	0.06834239
7	0xbc0fa285	-0.008766775
8	0xbc5fab2d	-0.013651651
9	0x3cc66ffd	0.024223322
10	0x3d3a6bf3	0.045513105
11	0xbd8f6837	-0.07002299
12	0x3ca5a38e	0.02021959
13	0xbd616ec8	-0.05503729
14	0x3c45eb76	0.012080064
15	0xbcec7bc0	-0.028867602
16	0x3d074e0c	0.033033416
17	0xbd1eb8e3	-0.03875054
18	0x3d7dbc4d	0.061947156
19	0xbc61c478	-0.013779752
20	0xbcf07578	-0.029352888
21	0xbd9aee5f	-0.07564997
22	0x3d4897c9	0.04897288
23	0xbd3a54ed	-0.045491148
24	0x3d3914cf	0.04518586
25	0x3d3dfc60	0.04638326
26	0x3c78e7c1	0.015191973
27	0xbd42c5dc	-0.047551975
28	0x3b05df31	0.0020427222
29	0x3cbcaec5	0.023032555
30	0x3d8808e9	0.066423245
31	0xbd46c228	-0.048525006
32	0xbe248a91	-0.16068484
33	0xbc72a010	-0.01480867
34	0xbc002e3e	-0.007823525
35	0xbbaa46ae	-0.005196414
36	0xbc174a23	-0.009233984
37	0x3cceef4a	0.025260586
38	0x3db0f1bf	0.086398594
39	0x3c488c14	0.0122404285
40	0x3d1b3f0f	0.037901934
41	0x3c2ac128	0.010422029
42	0xbaf37dee	-0.0018576959
43	0x3abe08c7	0.0014498465
44	0xbd4e1a4a	-0.05031804
45	0xbdccb80d	-0.099960424
46	0xbbee33fb	-0.00726938
47	0xbd0ffca6	-0.035153054
48	0xbdb7165f	-0.08939814
49	0xbd88ad62	-0.06673695
50	0xbd05d07a	-0.032669522
51	0xbd4a7f91	-0.049438063
52	0x3b8c5cab	0.004283508
53	0xbdc40f38	-0.09573215
54	0x3db12fdb	0.08651706
55	0x3d9b0a46	0.07570319
56	0x3cea79b5	0.028622488
57	0xbcfd0a34	-0.030888654
58	0x3b5bba5e	0.0033527832
59	0xbc76fbef	-0.015074714
60	0x3b7443d8	0.0037271883
61	0xbceec41c	-0.029146247
62	0x3c45f720	0.012082845
63	0x3c2d467e	0.010575889
64	0xbd1544e9	-0.03644267
65	0xbb84a1bf	-0.004047602
66	0x3d5282ae	0.051394157
67	0xbba22d20	-0.004949227
68	0x3d202247	0.03909519
69	0x3cfe769c	0.031062417
70	0xbd2c6729	-0.04209057
71	0x3d82fb6e	0.06395613
72	0x3c559432	0.013035821
73	0xbd8d403d	-0.06897018
74	0xbdc37f31	-0.09545744
75	0x3bfa2f04	0.007634999
76	0xbd46edd3	-0.04856665
77	0xbafbcd98	-0.0019211052
78	0xbe80dde7	-0.25169298
79	0xbe684ac3	-0.2268477
80	0x3d6fd9af	0.05855721
81	0xbb4c796f	-0.003120031
82	0x3dd110a6	0.102082536
83	0xbd176747	-0.036963727
84	0x3cbdbfee	0.023162808
85	0xbc5ef29a	-0.013607645
86	0xbd45993d	-0.048241843
87	0xbd182831	-0.037147705
88	0x3d15787e	0.036491863
89	0x3d6788ab	0.05652682
90	0xbd3d50f2	-0.046219774
91	0x3cbb8599	0.022890853
92	0xbcfa53f1	-0.030557605
93	0x3d31ef32	0.043441005
94	0x3d12fe77	0.035887208
95	0xbcb552b8	-0.02213417
96	0xbc8ff416	-0.017572444
97	0x3c644c12	0.013934152
98	0x3b191447	0.0023358034
99	0x3b89ffd1	0.004211404
100	0xbb93875e	-0.004502221
101	0xbd061acf	-0.03274041
102	0xbc2612ef	-0.01013635
103	0xbbed305c	-0.007238431
104	0xbe0d7871	-0.13815476
105	0x3cdb5ad6	0.026776712
106	0x3cd74b95	0.026281158
107	0xbd05e4a4	-0.03268875
108	0x3da7e090	0.08197129
109	0xbdbc4dea	-0.091945484
110	0xbd34b4dc	-0.044117793
111	0x3cdf5999	0.027264403
112	0xbc1fcf2a	-0.009753982
113	0x3e182c1d	0.14860578
114	0xbca2e9ee	-0.019886937
115	0x3ca57ad0	0.020200163
116	0x3de93c27	0.11388426
117	0xbd355f30	-0.04428023
118	0x3cd47250	0.025933415
119	0xbd3a40d3	-0.045471977
120	0x3e04dab0	0.12974048
121	0x3c8a0b1f	0.016851006
122	0x3d3c45ec	0.04596512
123	0x3ba2e1cf	0.004970766
124	0x3d1776b3	0.036978435
125	0x3d7970be	0.060898535
126	0xbd51bd2f	-0.05120581
127	0xbd5d567d	-0.05403756

dnn/hiddenlayer_0/MatMul f4 [128, 12]
0	0xbe0a2d74	-0.13493901
1	0xbd5a4f4f	-0.05329829
2	0x3da6a2ae	0.081364974
3	0xbd8a7091	-0.067597516
4	0x3dda9f1b	0.10674878
5	0xbe04e370	-0.12977386
6	0x3ce7b9c5	0.028286824
7	0x3e29dc2c	0.16587895
8	0xbde52a14	-0.111896664
9	0x3da204ac	0.07911047
10	0xbd33ea25	-0.04392447
11	0x3e04967b	0.12948029
12	0xbd74fc8f	-0.05981117
13	0x3e32360d	0.17403431
14	0xbe8b4560	-0.27201366
15	0x3d8e51da	0.06949206
16	0x3e6af171	0.22943665
17	0x3c1b8cea	0.009494046
18	0xbd8eb299	-0.069676585
19	0x3e055aa8	0.13022864
20	0xbdb3967e	-0.087689385
21	0x3d9d31d1	0.07675517
22	0xbc9691b2	-0.01838002
23	0x3e63b30d	0.22236271
24	0x3c53209d	0.012886194
25	0xbc4a440f	-0.012345328
26	0xbdcfc48f	-0.101449125
27	0x3d1227b2	0.035682388
28	0xba0f801e	-0.0005474108
29	0x3d22da0c	0.039758727
30	0x3e1503af	0.14552186
31	0x3cd1e57f	0.025622128
32	0xbcca7d43	-0.024717933
33	0x3cbd54db	0.023111751
34	0x3e02e375	0.1278208
35	0xbe2b97b0	-0.16757083
36	0x3e6f1038	0.2334603
37	0xbe08bd6b	-0.13353507
38	0x3e3eca97	0.1863197
39	0xbd450785	-0.048102874
40	0x3d8476d2	0.06467976
41	0x3e46580f	0.19369529
42	0xbc8be980	-0.017079115
43	0x3bf4835d	0.007461949
44	0xbd02f1ac	-0.031968758
45	0xbd456211	-0.048189227
46	0x3e48b17a	0.19598952
47	0x3e814b94	0.25252974
48	0x3e1d08fd	0.1533546
49	0xbe62dd29	-0.22154678
50	0x3e33a75b	0.1754431
51	0x3d8958dc	0.06706402
52	0x3dfc2016	0.123108074
53	0xbbe1e26d	-0.006893447
54	0x3d2035aa	0.039113678
55	0x3e812bc1	0.25228694
56	0x3d57c2a5	0.052675862
57	0xbe2408a1	-0.16018917
58	0xbdf534d9	-0.119729705
59	0xbd604a06	-0.054758094
60	0xbd3d44d9	-0.046208236
61	0xbdb6d84c	-0.08927974
62	0xbdd05dd8	-0.10174149
63	0xbc130b53	-0.008974868
64	0xbe05b930	-0.13058925
65	0x3e4d0639	0.20021905
66	0x3e107fb3	0.14111213
67	0xbdc7f867	-0.09764176
68	0xbda92109	-0.08258254
69	0x3e54b1c2	0.20770934
70	0x3d57d58c	0.05269389
71	0xbd822d44	-0.0635629
72	0xbd8cacac	-0.06868872
73	0xbd3120c8	-0.043244153
74	0x3cafe41d	0.021471078
75	0x3b43e146	0.0029888912
76	0xbe3d887b	-0.18509094
77	0x3e32ca31	0.17459942
78	0xbe1ede88	-0.15514576
79	0xbc8a95ad	-0.016917074
80	0xbe2ace8c	-0.16680354
81	0xbdbe0d04	-0.09279826
82	0xbdd99790	-0.106246114
83	0x3d88f6d4	0.06687704
84	0x3d632732	0.0554573
85	0xbdf1f89a	-0.11814995
86	0x3c909ee1	0.017653884
87	0x3d7f56eb	0.06233875
88	0xbe5ac751	-0.21365096
89	0x3e0e57a0	0.13900614
90	0x3e174366	0.14771804
91	0xbd08a7b1	-0.033363048
92	0x3d9280f3	0.07153501
93	0xbca67420	-0.020319045
94	0xbdf2e14e	-0.1185938
95	0x3e325ad0	0.17417455
96	0x3d2ffd46	0.04296615
97	0x3d956051	0.072937615
98	0x3e5936dc	0.21212333
99	0xbe22b2df	-0.15888546
100	0xbd39d39e	-0.04536783
101	0x3e7b7b44	0.24558741
102	0xbde41ccd	-0.11138306
103	0xbd460552	-0.048344918
104	0x3c77b1aa	0.015118042
105	0x3e187826	0.14889583
106	0x3e281b54	0.16416675
107	0x3dfe1ffc	0.12408444
108	0xbd6da7a3	-0.0580212
109	0x3e016c23	0.12638907
110	0x3dd66cf9	0.10470004
111	0xbce13fb4	-0.027496196
112	0x3d8c4af2	0.06850232
113	0xbe220d5f	-0.15825413
114	0x3dca25e8	0.09870511
115	0x3e3a1c00	0.18174744
116	0x3b3728c8	0.0027947892
117	0xbdfeb7a7	-0.12437373
118	0x3e12fbb8	0.14353836
119	0xbe0df0ec	-0.13861436
120	0xbdf34ce5	-0.11879901
121	0xbdef5ed1	-0.11688007
122	0x3d714bb0	0.05891007
123	0xbe5a0700	-0.21291733
124	0xbcf60ca5	-0.030035326
125	0x3e8552b6	0.26039666
126	0x3e091a0f	0.13388847
127	0x3df15731	0.117842086
128	0xbe31e3f1	-0.17372109
129	0x3d2a6181	0.041596893
130	0x3dbd65d1	0.092479356
131	0x3e51d037	0.20489584
132	0x3e45dcc0	0.1932249
133	0x3e0c02d6	0.13672957
134	0x3df4bf04	0.11950496
135	0x3e1fd056	0.15606818
136	0x3e08c17b	0.13355057
137	0x3e37cc82	0.17949107
138	0x3d935d98	0.07195586
139	0x3e34bd09	0.17650236
140	0xbdb38cb3	-0.087670706
141	0x3e676d72	0.22600344
142	0xbd9223ca	-0.071357325
143	0xbd6ab554	-0.057301834
144	0x3dabc636	0.08387415
145	0x3d94f8ad	0.07273994
146	0xbe6a8402	-0.2290192
147	0x3db5215c	0.088442534
148	0x3e1c0dbe	0.15239617
149	0x3e190bfe	0.14945981
150	0xbe374379	-0.17896833
151	0xbcdd1695	-0.026988307
152	0xbd2e8ad2	-0.042612858
153	0xbda0b41f	-0.07846855
154	0xbd9832fa	-0.07431598
155	0x3e63dc0c	0.2225191
156	0x3d9969cb	0.074908815
157	0x3e20f468	0.15718234
158	0x3e552990	0.20816636
159	0x3d9c102f	0.07620274
160	0x3dafdac0	0.08586645
161	0x3dbe745e	0.09299539
162	0x3cb9aaf7	0.02266453
163	0x3e2924ce	0.16517946
164	0xbd22b08b	-0.039719146
165	0xbe359ffb	-0.17736809
166	0xbe508655	-0.20363744
167	0xbc9fabda	-0.019491125
168	0x3e26be47	0.16283523
169	0xbd086103	-0.033295643
170	0xbd4e09a3	-0.05030216
171	0x3aabec7b	0.0013116741
172	0xbe1d2f93	-0.1535018
173	0x3e8c5a0c	0.2741245
174	0x3dcb2511	0.09919179
175	0x3cba9055	0.022773901
176	0xbd8aef26	-0.06783895
177	0xbdb18f2f	-0.08669888
178	0xbe48a010	-0.19592309
179	0x3e48bf54	0.19604236
180	0x3cfd2acf	0.030904202
181	0xbd947b2a	-0.07250054
182	0x3df5dc66	0.12004928
183	0xbda857fd	-0.082199074
184	0x3dd5fa7f	0.10448169
185	0x3e19771e	0.14986846
186	0x3e89e182	0.2692986
187	0xbe478018	-0.19482458
188	0xbcfb59f3	-0.03068254
189	0x3d0a95c2	0.033834226
190	0xbe45e574	-0.1932581
191	0xbe764951	-0.24051405
192	0xbe467ea0	-0.19384241
193	0xbdb98d3d	-0.09060142
194	0xbe00b204	-0.12567908
195	0xbd077393	-0.033069205
196	0xbe365319	-0.17805137
197	0xbcca6d0d	-0.024710203
198	0xbe0968ac	-0.13418835
199	0x3e5b1bd3	0.21397333
200	0xbdc05831	-0.09391821
201	0xbc6531ba	-0.0139889065
202	0x3e374c92	0.17900303
203	0xbd3ed71f	-0.046591874
204	0x3c674f2e	0.014117999
205	0xbe73f75c	-0.23824829
206	0x3e06172d	0.13094778
207	0x3e0de3ec	0.13856477
208	0xbe042790	-0.12905717
209	0x3d6b0b39	0.05738375
210	0xbd697e42	-0.057005174
211	0xbd9f5714	-0.07780281
212	0xbe03fe2c	-0.12889928
213	0x3e7ec1a0	0.2487855
214	0xbe156816	-0.14590487
215	0x3ce1d97e	0.027569529
216	0xbdfb4fc3	-0.12271073
217	0xbbcff6a2	-0.0063465396
218	0x3d84ccd4	0.0648438
219	0x3e29f21b	0.16596262
220	0x3db14f59	0.086577125
221	0x3d80a9f6	0.062824175
222	0xbd1bc740	-0.038031816
223	0xbd8015fa	-0.06254192
224	0xbe02f60b	-0.1278917
225	0x3e7d7b87	0.24754153
226	0xbe0c63fc	-0.13710016
227	0x3dbfd04b	0.093659006
228	0x3e6f0107	0.23340236
229	0xbe205017	-0.15655552
230	0xbe7709e6	-0.2412487
231	0x3e111942	0.14169791
232	0xbd72bdad	-0.05926292
233	0x3e166edd	0.14690728
234	0x3e59d937	0.21274267
235	0xbc1058b2	-0.008810209
236	0xbe20dc79	-0.15709104
237	0x3e03b0ef	0.12860464
238	0x3d989be0	0.07451606
239	0x3cb2c484	0.021822222
240	0x3dbec461	0.093148
241	0xbe025d39	-0.12730874
242	0xbdb145d4	-0.08655897
243	0xbc99c4f7	-0.018770678
244	0xbddb6463	-0.107125066
245	0xbdba7105	-0.09103588
246	0x3d405fa5	0.046966214
247	0x3e563387	0.20918094
248	0xbe23e9af	-0.16007112
249	0xbd7d64dd	-0.06186377
250	0xbe1f8cbb	-0.15581028
251	0xbe4e8866	-0.2016922
252	0xbdd4a94c	-0.10383853
253	0x3d89f8bf	0.06736898
254	0xbdd06ad3	-0.10176625
255	0x3ce2c840	0.027683377

dnn/hiddenlayer_1/MatMul f4 [64, 128]
0	0x3c9e91a4	0.019356556
1	0xbd995039	-0.074860044
2	0x3dd406e0	0.10352874
3	0xbd810a7e	-0.06300829
4	0x3df6ed2a	0.12056954
5	0x3e0d37b4	0.1379078
6	0xbdd2efc3	-0.10299637
7	0x3d4c1d86	0.049832843
8	0x3e251419	0.16120948
9	0xbd00f56c	-0.031484053
10	0x3e54075e	0.20705935
11	0xbdd3eb2e	-0.10347591
12	0xbd985d0a	-0.07439621
13	0xbdf1b280	-0.11801624
14	0x3dfc8923	0.12330844
15	0xbde113ca	-0.109901026
16	0x3e30e887	0.17276202
17	0xbe127ee8	-0.14306223
18	0x3e0a240d	0.13490315
19	0x3e3066ff	0.1722679
20	0x3d6411a5	0.05568089
21	0xbbd59495	-0.0065179565
22	0x3ba12b35	0.0049184808
23	0x3d15a3a3	0.03653301
24	0x3da326da	0.07966395
25	0x3e07c94b	0.13260381
26	0xbcda5321	-0.026650967
27	0x3dc7dd19	0.09758968
28	0xbe036f79	-0.12835492
29	0x3dd1088c	0.10206708
30	0x3c1b69d2	0.009485679
31	0xbb0a23bd	-0.002107843
32	0x3b508ce8	0.0031822268
33	0x3d516c8b	0.051128905
34	0xbd4dc8fa	-0.050240494
35	0xbdb15e79	-0.08660597
36	0x3d9e7830	0.07737768
37	0x3de94d43	0.1139169
38	0xbe2cf9d9	-0.16892184
39	0x3dd26c72	0.102745906
40	0x3e3f96f5	0.1870993
41	0xbd69e3c4	-0.05710198
42	0x3e2d40c1	0.16919233
43	0x3d1055fd	0.035238255
44	0xbd615457	-0.055012073
45	0xbd03bb45	-0.032161016
46	0x3d2f59b4	0.042810157
47	0xbe39c8ab	-0.18142955
48	0x3c0122e6	0.007881856
49	0x3cc78ad6	0.024358194
50	0xbdce24b9	-0.10065598
51	0x3cc54578	0.024080977
52	0xbdcd2f2b	-0.10018762
53	0xbd62f86f	-0.055412706
54	0xbdf79c5b	-0.12090369
55	0x3c784dd7	0.015155277
56	0x3dd5bf31	0.104368575
57	0xbdbd64c7	-0.092477374
58	0x3b1721a6	0.0023060828
59	0x3d0aa437	0.033848014
60	0x3dae2214	0.08502594
61	0xbc95dca7	-0.018293692
62	0xbc93e4e0	-0.018053472
63	0xbe002451	-0.12513854
64	0xbe1ac204	-0.15113074
65	0x3d977000	0.07394409
66	0x3d55e4e0	0.052220225
67	0x3e13357c	0.14375871
68	0xbe061fae	-0.13098022
69	0x3db56358	0.08856839
70	0xbdb8844c	-0.090096086
71	0x3d21d95e	0.039513938
72	0xbdf2e95e	-0.118609175
73	0x3d8a15de	0.06742452
74	0xbda48676	-0.08033459
75	0x3cc5edb9	0.024161207
76	0xbddc1f21	-0.10748125
77	0x3e1e8a91	0.15482546
78	0x3ca39b81	0.019971611
79	0xbd90d00b	-0.07070931
80	0x3e474ffc	0.19464105
81	0xbe3dfe03	-0.18553929
82	0x3e33db44	0.17564112
83	0xbc2d8c1e	-0.010592489
84	0xbd92414c	-0.07141361
85	0x3e030de8	0.12798274
86	0xbd9def90	-0.077117085
87	0x3d71148f	0.058857497
88	0x3d5fbc45	0.054622907
89	0xbe4124ff	-0.18861769
90	0xbe1a5458	-0.15071237
91	0x3ddafcf4	0.10692778
92	0xbbea6912	-0.0071536386
93	0xbe1b8a90	-0.15189576
94	0x3dedfcfa	0.11620517
95	0x3d98ec99	0.074670024
96	0x3d8d515e	0.06900285
97	0xbcfa0268	-0.030518726
98	0x3e154762	0.14578012
99	0xbe50f1fa	-0.20404807
100	0x3d1e3ece	0.038634114
101	0x3e1d3a95	0.15354379
102	0xbe4d694c	-0.20059699
103	0xbdff2ce4	-0.12459734
104	0x3d030ba1	0.031993512
105	0xbe362a01	-0.1778946
106	0xbdeeab2d	-0.11653743
107	0x3c563fdb	0.013076748
108	0x3e69c77a	0.2283
109	0xbe2102fd	-0.15723796
110	0x3e267c80	0.1625843
111	0x3e438145	0.19092281
112	0xbe03c91f	-0.1286969
113	0xbaf394bc	-0.0018583755
114	0xbe188704	-0.14895254
115	0x3ce0950a	0.027414817
116	0x3dd93736	0.10606234
117	0x3e3ba148	0.18323243
118	0xbe0bd616	-0.13655886
119	0xbe14fd82	-0.1454983
120	0xbd88cfa8	-0.06680232
121	0x3e26f061	0.16302635
122	0x3e089d01	0.13341142
123	0xbd5b8bca	-0.05360011
124	0xbd3a0f6e	-0.04542487
125	0x3d91c8c6	0.071183726
126	0x3de46666	0.111523435
127	0xbd1ffc76	-0.039059125
128	0xbe42ed7c	-0.19035906
129	0xbddd707c	-0.1081247
130	0x3cc5b793	0.024135387
131	0xb9a8610c	-0.00032115763
132	0xbd36c301	-0.044619564
133	0xbe0bd9b8	-0.13657272
134	0x3e0f18af	0.1397426
135	0xbd6666d6	-0.056250416
136	0xbe0b587f	-0.13607977
137	0x3e2c3377	0.16816507
138	0xbdbd0476	-0.092293665
139	0xbdf849a5	-0.121234216
140	0x3d56176d	0.052268434
141	0xbe4d3f12	-0.2004359
142	0xbde2a1d1	-0.1106602
143	0xbd8e8556	-0.069590256
144	0xbe307a17	-0.17234074
145	0x3c53496c	0.012895923
146	0xbe162789	-0.14663519
147	0x3d8759a0	0.066088915
148	0x3e2b2419	0.16712989
149	0xbdf5dcc0	-0.12004995
150	0x3b955d2d	0.0045582266
151	0x3db50520	0.08838868
152	0xbdc8e565	-0.098093785
153	0xbd3e5697	-0.046469297
154	0x3e031553	0.12801103
155	0x3dbc81ff	0.09204482
156	0x3de97bb4	0.114005476
157	0xbe36c02f	-0.1784675
158	0x3e32fcac	0.17479199
159	0x3bebc827	0.007195491
160	0x3dfcd2cf	0.12344896
161	0x3e1a9006	0.15094003
162	0xbe22d253	-0.15900545
163	0x3df2cb4b	0.11855181
164	0xbd0e7090	-0.034775317
165	0xbe2712b8	-0.16315734
166	0xbe049e22	-0.12950948
167	0x3dfb5532	0.12272109
168	0xbde3e791	-0.11128152
169	0x3e118919	0.14212455
170	0xbb3deab1	-0.0028978998
171	0xbde3e041	-0.111267574
172	0xbc44c77a	-0.01201045
173	0xbd40848a	-0.0470014
174	0x3c8ef1d7	0.017449303
175	0x3dd9a47e	0.106270775
176	0xbdc4f082	-0.09616186
177	0xbddeb748	-0.10874802
178	0xbe2ae035	-0.1668709
179	0x3dd2cc72	0.10292901
180	0xbddb4f98	-0.10708541
181	0x3dcee10b	0.10101517
182	0x3d9d61d1	0.076846726
183	0xbe12e207	-0.14344035
184	0x3d4a39bf	0.049371477
185	0xbdeee252	-0.11664261
186	0xbdfb8f3d	-0.1228318
187	0x3d4b3e66	0.049620055
188	0xbdd4e230	-0.10394704
189	0x3b7adc8a	0.0038278424
190	0xbcaaecdb	-0.020864895
191	0xbc5cead2	-0.01348372
192	0x3e2174dc	0.15767235
193	0x3d27abf1	0.04093546
194	0xbd8e7a1c	-0.06956884
195	0x3e1cae41	0.15300848
196	0xbcd453ee	-0.025918927
197	0xbe2fe2da	-0.17176381
198	0xbcca81ab	-0.024720034
199	0xbd48aabc	-0.04899095
200	0xbb46f271	-0.0030356909
201	0x3e026ccd	0.12736817
202	0xbcf08795	-0.029361526
203	0x3d8b11b7	0.06790488
204	0xbdbd7e57	-0.09252613
205	0x3dddd848	0.10832268
206	0x3e198a9b	0.1499428
207	0x3dd4b0b1	0.10385264
208	0xbe3d0f7f	-0.18462943
209	0xbda7fde7	-0.08202725
210	0x3d84a98c	0.06477651
211	0x3d84aa59	0.06477804
212	0x3e0f8e5e	0.14019153
213	0xbc8abed2	-0.016936693
214	0xbd380ec6	-0.044935964
215	0x3e4ebfc5	0.20190342
216	0x3db59edb	0.0886819
217	0x3da54b29	0.08070976
218	0x3dd9150e	0.10599719
219	0xbe0e95b9	-0.13924302
220	0xbc9d162a	-0.019175608
221	0x3db366b8	0.087598264
222	0xbd7d3819	-0.061821077
223	0xbe071d80	-0.13194847
224	0x3d4fe74b	0.050757688
225	0x3d8c9e8a	0.068661764
226	0x3d8e5bcd	0.06951103
227	0x3e31257f	0.1729946
228	0x3d1b6217	0.037935343
229	0xbe28c81e	-0.16482589
230	0x3d46fcc1	0.04858089
231	0xbcddf1c6	-0.027092826
232	0x3d913b67	0.07091408
233	0xbddd1bee	-0.10796343
234	0xbc8f6073	-0.017502045
235	0xbc9921c6	-0.018692862
236	0xbde5f9d2	-0.1122929
237	0x3d9e1d79	0.07720465
238	0x3e2ad560	0.16682959
239	0x3c8214ec	0.015879117
240	0x3d8c1533	0.06839981
241	0x3e3c3473	0.18379383
242	0x3e0e999a	0.13925782
243	0xbe2c5544	-0.16829401
244	0xbd8f49e8	-0.069965184
245	0x3c085075	0.008319964
246	0x3e153983	0.1457272
247	0x3d426879	0.047462914
248	0xbe0d7dda	-0.1381754
249	0x3d393463	0.045215975
250	0xbde617db	-0.11235019
251	0xbccceb63	-0.025014585
252	0x3c1013d4	0.00879379
253	0xbdf30f95	-0.118682064
254	0x3dfb9f8f	0.12286293
255	0x3df4b862	0.11949231

dnn/logits/MatMul f4 [1, 64]
0	0x3e8342a3	0.25636777
1	0x3e40b1ed	0.18817873
2	0xbdcf9c43	-0.101372264
3	0x3ebe3ebe	0.37157243
4	0x3e223a59	0.1584257
5	0x3c83e20a	0.016098995
6	0xbe2faf2a	-0.17156664
7	0x3ea79a35	0.32734838
8	0x3e98a4a4	0.2981311
9	0x3e93584a	0.28778297
10	0x3e420420	0.18946886
11	0xbe8e0fe5	-0.27746502
12	0xbe90cb29	-0.2828
13	0x3ded34e7	0.11582356
14	0x3c9cd7c4	0.019145854
15	0x3ded89cf	0.115985505
16	0x3e318895	0.17337258
17	0x3e69fe1c	0.22850841
18	0x3eb5e568	0.35526586
19	0xbdf1b293	-0.118016385
20	0x3ec047d6	0.37554806
21	0x3ebbea16	0.3670203
22	0x3e326b3a	0.17423716
23	0xbb7c72b5	-0.003852052
24	0xbe82746e	-0.25479454
25	0xbe8160bf	-0.25269124
26	0xbee00916	-0.43756932
27	0x3e9a4d4d	0.301371
28	0x3ddc3936	0.107530996
29	0x3d29cd40	0.041455507
30	0xbccdead7	-0.025136394
31	0x3e6a41ff	0.22876738
32	0xbd36988f	-0.044579085
33	0xbd878719	-0.06617565
34	0xbcccb1c1	-0.024987103
35	0x3c0ce754	0.008600075
36	0xbe82beb5	-0.25536123
37	0xbcf3f5c2	-0.029780272
38	0xbc82d751	-0.015971811
39	0x3ea0d1a4	0.31409943
40	0xbe938901	-0.28815463
41	0xbe91d556	-0.28483075
42	0x3e2482a4	0.1606546
43	0xbda2a8ed	-0.07942376
44	0x3eaf25d2	0.34208542
45	0x3e3a406b	0.18188636
46	0xbe8e0ff7	-0.27746555
47	0x3e89e99f	0.2693605
48	0x3e0adf41	0.13561727
49	0x3cfca721	0.030841412
50	0xbe11616e	-0.14197323
51	0x3d949a5c	0.07256004
52	0x3e4f1b89	0.20225348
53	0x3e5f0e75	0.21782859
54	0x3bcbe234	0.006222034
55	0xbeb794a2	-0.35855585
56	0x3e45bf82	0.19311336
57	0x3e476635	0.19472583
58	0xbdd5f31f	-0.10446762
59	0x3edafbf1	0.4277034
60	0x3e21b3ab	0.15791194
61	0xbeac92bb	-0.33705696
62	0xbe884b7d	-0.26620093
63	0xbe855e17	-0.26048347
